…
ta, 0.0)"],"metadata":{"id":"7zzkbMMuGpTF"},"execution_count":null,"outputs":[]},{"cell_type":"code","source":["discriminator.apply(weight_init)\n","generator.apply(weight_init)"],"metadata":{"id":"NTTELHvXGqXt","colab":{"base_uri":"https://localhost:8080/"},"executionInfo":{"status":"ok","timestamp":1648620160681,"user_tz":-330,"elapsed":52,"user":{"displayName":"Lalit Saini","userId":"07496788471592910399"}},"outputId":"661edc36-783b-4bd1-a0c0-eee01214429f"},"execution_count":null,"outputs":[{"output_type":"execute_result","data":{"text/plain":["Generator(\n","  (gen): Sequential(\n","    (0): ConvTranspose2d(100, 512, kernel_size=(4, 4), stride=(1, 1), bias=False)\n","    (1): BatchNorm2d(512, eps=1e-05, momentum=0.1, affine=True, track_running_stats=True)\n","    (2): ReLU(inplace=True)\n","    (3): ConvTranspose2d(512, 256, kernel_size=(4, 4), stride=(2, 2), padding=(1, 1), bias=False)\n","    (4): BatchNorm2d(256, eps=1e-05, momentum=0.1, affine=True, track_running_stats=True)\n","    (5): ReLU(inplace=True)\n","    (6): ConvTranspose2d(256, 128, kernel_size=(2, 2), stride=(2, 2), padding=(1, 1), bias=False)\n","    (7): BatchNorm2d(128, eps=1e-05, momentum=0.1, affine=True, track_running_stats=True)\n","    (8): ReLU(inplace=True)\n","    (9): ConvTranspose2d(128, 64, kernel_size=(4, 4), stride=(2, 2), padding=(1, 1), bias=False)\n","    (10): BatchNorm2d(64, eps=1e-05, momentum=0.1, affine=True, track_running_stats=True)\n","    (11): ReLU(inplace=True)\n","    (12): ConvTranspose2d(64, 32, kernel_size=(4, 4), stride=(2, 2), padding=(1, 1), bias=False)\n","    (13): BatchNorm2d(32, eps=1e-05, momentum=0.1, affine=True, track_running_stats=True)\n","    (14): ReLU(inplace=True)\n","    (15): ConvTranspose2d(32, 16, kernel_size=(4, 4), stride=(2, 2), padding=(1, 1), bias=False)\n","    (16): BatchNorm2d(16, eps=1e-05, momentum=0.1, affine=True, track_running_stats=True)\n","    (17): ReLU(inplace=True)\n","    (18): ConvTranspose2d(16, 8, kernel_size=(4, 4), stride=(2, 2), padding=(1, 1), bias=False)\n","    (19): Conv2d(8, 4, kernel_size=(1, 1), stride=(1, 1), bias=False)\n","    (20): Tanh()\n","  )\n",")"]},"metadata":{},"execution_count":12}]},{"cell_type":"code","source":["if cuda:\n","    generator.cuda()\n","    discriminator.cuda()"],"metadata":{"id":"aOQU0IxUGUi0"},"execution_count":null,"outputs":[]},{"cell_type":"code","source":["transform_img = T.Compose([\n","        T.Normalize((0.485, 0.456, 0.406),
…
